practice/python/model.pkl (torch, 7553 bytes, 12 tensors)

MLP.0.weight f4 [5, 2]
0	0xbed2f62a	-0.41203433
1	0xbeb2d924	-0.3493129
2	0x3ecc6546	0.39921016
3	0x3d2e3f30	0.04254073
4	0x3f29fd33	0.66401976
5	0x3e511960	0.20419836
6	0xbd0e2fa0	-0.034713387
7	0x3e68b314	0.22724563
8	0x3f177575	0.591636
9	0xbf2b4977	-0.66908973

MLP.0.bias f4 [5]
0	0x3ec6053e	0.38675874
1	0x3ed3284e	0.41241688
2	0xbdd37dc8	-0.10326725
3	0xbf240b90	-0.6408014
4	0x3f0acd4b	0.542195

MLP.1.weight f4 [10, 5]
0	0x3eb7592a	0.35810214
1	0xbc0b25a0	-0.008492857
2	0xbd5e6900	-0.054299355
3	0x3e8f0742	0.27935225
4	0x3ea08800	0.3135376
5	0xbebd275c	-0.3694409
6	0xbd3e1358	-0.046405166
7	0x3e857f68	0.26073766
8	0xbcc7dcf0	-0.024397343
9	0xbcc73ea0	-0.024321854
10	0x3e40112c	0.1875655
11	0xbe9a68c3	-0.30158052
12	0xbe3e4a48	-0.18583024
13	0xbe1d8e88	-0.15386403
14	0x3e103128	0.14081252
15	0x3de7d350	0.113196015
16	0x3e8e7576	0.2782399
17	0x3ed1042a	0.4082349
18	0x3e40fe74	0.18847066
19	0xbd8e591c	-0.0695059
20	0xbc5e8ea0	-0.013583809
21	0xbdc92b80	-0.0982275
22	0xbe8a18fc	-0.26972187
23	0xbe4f32f8	-0.20234287
24	0xbe5d305e	-0.21600482
25	0xbe9ab414	-0.30215514
26	0x3c6419a0	0.013922125
27	0x3e8d6dba	0.27622777
28	0x3e44051c	0.19142574
29	0x3ee36070	0.44409513
30	0x3eb438e6	0.3519966
31	0x3d88f5f0	0.06687534
32	0x3ddfc730	0.10926664
33	0x3eabb53c	0.33536708
34	0xbe2383c8	-0.1596824
35	0x3ee238d2	0.44183975
36	0xbda66910	-0.08125508
37	0x3d582ae0	0.052775264
38	0xbd920ec0	-0.071317196
39	0xbd944580	-0.072398186
40	0x3e4fc534	0.20290071
41	0x3e233440	0.159379
42	0x3eca0bac	0.3946203
43	0xbe4c9e73	-0.19982319
44	0x3e53569c	0.20638508
45	0xbdae2f6c	-0.08505139
46	0xbe988508	-0.29788995
47	0xbea23d46	-0.31687373
48	0xbd73ee60	-0.059553504
49	0x3cb3deb0	0.021956772

MLP.1.bias f4 [10]
0	0xbab59b00	-0.0013855398
1	0xbebd7b8a	-0.37008315
2	0x3d114fe8	0.035476595
3	0x3e082128	0.13293898
4	0xbdab2740	-0.08357096
5	0x3eb98384	0.3623315
6	0x3dd4bfa0	0.10388112
7	0xbea99b77	-0.33126423
8	0x3e092f18	0.13396871
9	0xbc688f40	-0.01419431

MLP.2.weight f4 [15, 10]
0	0x3dae2dd0	0.08504832
1	0xbd80c120	-0.06286836
2	0xbe812e11	-0.25230458
3	0x3d147bf8	0.03625104
4	0x3cdd8600	0.027041435
5	0xbd865bf0	-0.065605044
6	0xbe1de295	-0.15418465
7	0x3d719710	0.058981955
8	0x3d152690	0.03641373
9	0xbe1e7bf9	-0.1547698
10	0xbe190aa7	-0.1494547
11	0xbe3d8460	-0.18507528
12	0xbe939f88	-0.2883265
13	0x3dcfe468	0.10150987
14	0x3dc6887c	0.09694001
15	0x3e7670fe	0.2406654
16	0xbe9f758c	-0.3114437
17	0x3e1c3ec2	0.15258315
18	0x3e772afa	0.24137488
19	0xbd981da2	-0.07427527
20	0x3dd8b2e8	0.10580999
21	0xbe205b58	-0.15659845
22	0x3e8c3191	0.27381566
23	0xbdef5e16	-0.11687867
24	0xbe4c2d56	-0.1993917
25	0xbdf28d7e	-0.11843394
26	0xbe6a8f76	-0.22906289
27	0xbe822619	-0.2541969
28	0xbe49c956	-0.1970571
29	0x3e844d15	0.2584006
30	0x3cc497c0	0.023998141
31	0xbdae2f24	-0.08505085
32	0x3e2c0470	0.16798568
33	0xbe8519c9	-0.25996235
34	0xbe259ff8	-0.16174304
35	0xbe30f2a1	-0.17280056
36	0xbe02e726	-0.12783489
37	0x3e8cbff1	0.2749019
38	0xbde9640e	-0.11396037
39	0x3e8fbe67	0.28074953
40	0xbe078de5	-0.13237722
41	0xbd582bd8	-0.052776188
42	0x3a009800	0.0004905462
43	0x3e92fc49	0.28708103
44	0xbd2ccc60	-0.042187095
45	0x3b858240	0.004074365
46	0x3d86da3c	0.06584594
47	0xbe8a482e	-0.27008194
48	0x3e895d7f	0.26829144
49	0x3c95c7d0	0.018283755
50	0xbe9cecf6	-0.30649537
51	0xbd439b30	-0.04775542
52	0xbd995286	-0.07486443
53	0xbdf5c73e	-0.12000893
54	0x3cb77a20	0.0223971
55	0xbd842d84	-0.06453994
56	0x3df507e0	0.11964393
57	0x3e9bb339	0.30410174
58	0x3e6cec2e	0.2313697
59	0xbe917165	-0.28406826
60	0xbe768e16	-0.24077639
61	0x3e87e97b	0.2654532
62	0xbe936fec	-0.28796327
63	0xbe6cd9ed	-0.23130007
64	0x3e1ad266	0.15119323
65	0xbe4fba0a	-0.20285812
66	0x3d9ab90c	0.07554826
67	0x3e807161	0.250865
68	0xbe9fde96	-0.31224507
69	0x3e1b7f5a	0.151853
70	0x3e28ae6a	0.16472784
71	0x3e0cb3e4	0.13740498
72	0x3d65a8e8	0.056069285
73	0x3e4512da	0.19245473
74	0x3e7d7792	0.24752644
75	0xbd0eccb0	-0.034863174
76	0xbe794cac	-0.24345654
77	0xbd4dfef0	-0.050291955
78	0x3e4ee0c6	0.20202932
79	0xbe7e4a4d	-0.24833031
80	0xbdf8511c	-0.121248454
81	0x3dd2de18	0.10296267
82	0xbdbb5a1c	-0.091480464
83	0xbe28a504	-0.16469198
84	0x3c203ce0	0.009780139
85	0x3d344118	0.04400739
86	0x3e824377	0.25442097
87	0x3c4d07a0	0.012514025
88	0xbe9d31f2	-0.30702168
89	0x3c8336b0	0.016017288
90	0x3e8818c7	0.26581404
91	0xbe07ef85	-0.13274963
92	0xbdaebf38	-0.08532566
93	0xbe9d0bba	-0.3067301
94	0xbe453ac6	-0.19260702
95	0xbe4d70e8	-0.20062602
96	0xbe6a1124	-0.22858101
97	0xbdc7311c	-0.09726164
98	0xbe15afb3	-0.14617805
99	0xbd49ef70	-0.04930061
100	0x3cc120a0	0.023575127
101	0xbe96c341	-0.29445842
102	0x3c9d8560	0.019228637
103	0xbea078da	-0.31342202
104	0xbe200a6b	-0.15628974
105	0x3e53e1a6	0.20691547
106	0xbe3ed6de	-0.18636653
107	0x3e8f0021	0.27929786
108	0x3e74d25a	0.23908368
109	0xbb8cb680	-0.0042942166
110	0x3e4c05f6	0.19924149
111	0xbe558ce7	-0.20854531
112	0xbe03343b	-0.12812893
113	0x3e21833c	0.15772718
114	0xbe3358af	-0.17514299
115	0xbe5e3bce	-0.21702501
116	0xbe92920a	-0.28627044
117	0x3da4b5b8	0.080424726
118	0x3d0f0300	0.03491497
119	0xbe05fc4e	-0.13084528
120	0xbd429128	-0.047501713
121	0x3d1f8290	0.038942873
122	0x3d41fcd8	0.04736027
123	0xbde9fa5c	-0.114247054
124	0x3dc49e00	0.096004486
125	0x3e1d1ed4	0.15343791
126	0xbde8c752	-0.11366142
127	0xbd77e040	-0.060516596
128	0xbdbd6ea8	-0.09249622
129	0xbd78acb8	-0.060711592
130	0x3df87d08	0.12133223
131	0x3e4a4562	0.1975303
132	0xbe13ac5e	-0.14421222
133	0xbda63c50	-0.081169724
134	0xbe3334cb	-0.17500608
135	0xbdfb1ab4	-0.122609526
136	0x3e9651e3	0.2935935
137	0x3e6cc9a6	0.23123798
138	0xbe1897a8	-0.14901602
139	0x3e2af922	0.16696599
140	0xbe1f6b30	-0.15568233
141	0x3e35f76c	0.17770165
142	0xbd9d520a	-0.07681663
143	0x3d96e558	0.073679626
144	0x3e9760b7	0.29565975
145	0xbe9ec774	-0.31011546
146	0xbe8f5ea4	-0.28001893
147	0xbe940e80	-0.28917313
148	0x3e965c9f	0.2936754
149	0x3e1f251a	0.15541497

MLP.2.bias f4 [15]
0	0xbe591e02	-0.21202853
1	0xbe8ac1d0	-0.27100992
2	0xbe812fc3	-0.25231752
3	0xbe92313a	-0.28553182
4	0x3e8b90e7	0.2725899
5	0xbda1c6d4	-0.078992516
6	0xbe825434	-0.25454867
7	0xbe99ecb6	-0.3006341
8	0xbe217e09	-0.15770735
9	0x3e9aa213	0.30201778
10	0x3dbc5620	0.091961145
11	0x3e8e1edb	0.27757916
12	0x3d246b08	0.040141135
13	0xbe8eec83	-0.2791482
14	0x3e1ede98	0.155146

MLP.3.weight f4 [20, 15]
0	0xbd8a28e4	-0.067460805
1	0xbe67786d	-0.22604533
2	0xbc2f1b70	-0.010687694
3	0xbe2f8682	-0.17141154
4	0x3e3cd5c6	0.18440923
5	0xbe64b54d	-0.22334786
6	0x3e46cc9e	0.19413993
7	0xbe3fb808	-0.18722546
8	0xbe377b74	-0.17918187
9	0xbe36b26c	-0.178415
10	0xbe681617	-0.22664677
11	0xbb9f78c0	-0.0048666894
12	0xbde6f552	-0.1127726
13	0xbdc7203e	-0.097229466
14	0x3d74efe0	0.059799075
15	0x3e1f1c52	0.15538147
16	0xbe1c9da2	-0.15294507
17	0xbe232e0c	-0.15935534
18	0xbdbefcc8	-0.09325558
19	0x3d2bb408	0.041919738
20	0x3df26c64	0.1183708
21	0x3e4392f2	0.19099024
22	0x3e6b3234	0.2296837
23	0xbcb23230	-0.021752447
24	0x3e465cc6	0.19371328
25	0x3e651ec2	0.22375014
26	0x3ded7770	0.115950465
27	0x3e70ca3e	0.2351465
28	0xbe593376	-0.21211037
29	0xbe6dfc6c	-0.23240823
30	0x3e6a54ce	0.22883913
31	0x3d3936d0	0.04521829
32	0x3dd3c780	0.10340786
33	0x3d40d240	0.04707551
34	0xbdd8a8ea	-0.10579093
35	0x3df5a8a8	0.11995059
36	0xbe0f9530	-0.14021754
37	0x3e461608	0.19344342
38	0x3dd79b50	0.105276704
39	0xbe6e6bbd	-0.23283286
40	0xbdb84dd0	-0.089992166
41	0xbde479ae	-0.11156021
42	0x3d53d378	0.051715344
43	0xbe82b093	-0.2552534
44	0x3e6471e0	0.22309065
45	0xbd93807a	-0.07202239
46	0x3e5db0ce	0.21649477
47	0xbdbe7a82	-0.0930071
48	0x3ba98500	0.0051733255
49	0xbe7b2162	-0.24524453
50	0xbdfd79a8	-0.1237672
51	0xbe45e8da	-0.19327107
52	0xbdfc9bde	-0.12334417
53	0x3b936600	0.0044982433
54	0xbe481430	-0.19538951
55	0x3c9f9d20	0.019484103
56	0x3d2df050	0.042465508
57	0x3e02e414	0.12782317
58	0xbd7a7398	-0.061145395
59	0x3e1a3c08	0.15061963
60	0xbc9e01e0	-0.019288003
61	0xbe4a6918	-0.19766653
62	0xbe654460	-0.22389364
63	0x3e56a12a	0.20959917
64	0xbe5b16ec	-0.21395463
65	0x3ddac9e4	0.10683039
66	0xbb2c5680	-0.0026296675
67	0x3e53c1ec	0.20679444
68	0xbe78509f	-0.24249505
69	0x3e16cf50	0.14727521
70	0xbcccff30	-0.025024027
71	0x3e12b0e0	0.14325285
72	0xbe52bc91	-0.20579745
73	0xbdbf51b2	-0.09341754
74	0xbd758d84	-0.059949413
75	0xbe0508e1	-0.12991668
76	0x3df54a24	0.11977032
77	0xbe4ad732	-0.19808653
78	0x3d965e40	0.073421955
79	0xbc8f9350	-0.017526299
80	0xbe6b3dcf	-0.22972797
81	0x3e28c3f6	0.16481003
82	0xbe63d348	-0.22248566
83	0xbddfc19a	-0.109255984
84	0xbd461144	-0.04835631
85	0x3d334c50	0.04377395
86	0x3d058458	0.032596916
87	0xbe6e6e2f	-0.23284219
88	0x3e65fb52	0.22459152
89	0x3e53a746	0.20669279
90	0xbe56bb96	-0.20969996
91	0xbe34175f	-0.1758704
92	0x3d6228c0	0.055214643
93	0xbe585f2e	-0.21130058
94	0x3e2192cc	0.15778655
95	0xbd913eee	-0.07092081
96	0x3ccebda0	0.025236905
97	0x3d0daa18	0.034586042
98	0x3e6694e2	0.22517732
99	0x3e459066	0.19293365
100	0xbd89065e	-0.066906676
101	0x3dda6b84	0.10665038
102	0xbd954fc8	-0.07290608
103	0x3e2abe44	0.16674143
104	0xbe803f41	-0.2504826
105	0xbe29e57c	-0.16591448
106	0x3db6c990	0.08925164
107	0xbbafcc80	-0.0053649545
108	0xbbba1a00	-0.005679369
109	0xbd935384	-0.07193664
110	0xbe6267e4	-0.22109944
111	0x3e404c16	0.18779024
112	0xbd0dd5e4	-0.03462781
113	0xbe6a688f	-0.22891448
114	0x3d7c0f18	0.061537832
115	0xbdaf6ada	-0.08565302
116	0xbe16fb76	-0.14744362
117	0xbdbed1dc	-0.09317371
118	0xbe6a37fc	-0.22872919
119	0x3e7a5e02	0.24449924
120	0xbe40558b	-0.18782632
121	0xbdb06fa6	-0.08615045
122	0xbe2a5897	-0.16635357
123	0xbe06b182	-0.13153651
124	0x3dc0e958	0.09419507
125	0x3d8cf48c	0.06882581
126	0xbe103cb6	-0.1408566
127	0xbe6f3646	-0.23360547
128	0xbd2cef24	-0.04222025
129	0xbd1d8090	-0.038452685
130	0xbe6aebfc	-0.22941583
131	0xbba0f440	-0.0049119294
132	0xbda2a340	-0.07941294
133	0x3e3e8294	0.18604499
134	0xbe415899	-0.18881454
135	0x3e0767be	0.13223168
136	0x3dc1fa74	0.09471598
137	0xbe6218ee	-0.22079822
138	0x3e625bcc	0.2210533
139	0x3e1e319c	0.15448612
140	0x3e805707	0.25066397
141	0xbe2995f0	-0.16561103
142	0xbde1e330	-0.11029661
143	0x3d541898	0.051781267
144	0xbdfbbd5c	-0.12291977
145	0xbe1d8230	-0.15381694
146	0xbe5808fc	-0.21097177
147	0xbe6bbf39	-0.23022164
148	0x3e67fdc8	0.22655404
149	0xbe7478d0	-0.23874211
150	0x3e3910fa	0.18072882
151	0xbe21880e	-0.15774557
152	0x3dc8deb8	0.09808105
153	0xbe56409e	-0.20923087
154	0x3e475690	0.19466615
155	0xbe112ae4	-0.14176518
156	0xbc1073c0	-0.008816659
157	0xbe300c76	-0.17192253
158	0x3e76d3a6	0.24104175
159	0x3e199816	0.14999422
160	0x3d5f88f8	0.054573983
161	0xbd158ec4	-0.036513105
162	0x3d9c8e18	0.0764429
163	0x3e61500a	0.22003189
164	0xbe704a86	-0.23465928
165	0xbccd1530	-0.025034517
166	0x3e7e6e6a	0.24846807
167	0x3e1094c4	0.1411925
168	0xbe0dc80f	-0.13845848
169	0x3e2316d8	0.15926683
170	0x3e7c2ca2	0.24626401
171	0x3e550a0e	0.20804617
172	0x3db94584	0.09046462
173	0xbd096244	-0.03354098
174	0xbdb4dd6c	-0.08831295
175	0x3e011362	0.1260505
176	0xbdb26324	-0.08710316
177	0x3e220294	0.15821296
178	0xbdbc3a28	-0.0919078
179	0x3c7d5700	0.015462637
180	0xbd2f7a70	-0.042841375
181	0x3e0e3e3e	0.13890931
182	0xbe0f3ac0	-0.13987255
183	0xbb2ce280	-0.0026380122
184	0x3df415d8	0.11918229
185	0x3c2ce200	0.0105519295
186	0x3dcb0bcc	0.099143595
187	0xbdb52a02	-0.08845903
188	0xbe81dfa5	-0.2536594
189	0x3daa6360	0.083197355
190	0xbd672768	-0.056434065
191	0x3e0a81aa	0.13526025
192	0xbe01a6ef	-0.12661336
193	0xbd4bfb98	-0.049800485
194	0x3e24d0be	0.16095254
195	0x3e276aac	0.16349286
196	0xbdd9ef7c	-0.10641381
197	0xbe76989a	-0.2408165
198	0xbe5cb229	-0.21552338
199	0xbcaa8e48	-0.020819798
200	0xbe62f8e2	-0.22165254
201	0x3e42f15c	0.19037384
202	0x3e3a47ba	0.18191424
203	0xbe53a2c9	-0.20667566
204	0x3e6cc810	0.23123193
205	0xbd9861c0	-0.07440519
206	0x3e034b28	0.12821639
207	0xbd8bcaea	-0.06825812
208	0x3ddd0924	0.10792759
209	0x3de1acd8	0.110192955
210	0x3df52b18	0.1197111
211	0x3d29d168	0.04145947
212	0xbe80d847	-0.25165007
213	0xbe5656d6	-0.20931563
214	0xbe0e9af6	-0.139263
215	0xbe044ec4	-0.12920672
216	0x3e49a240	0.196908
217	0xbe5ee7b0	-0.2176807
218	0x3e12b842	0.14328101
219	0x3e1e4c80	0.1545887
220	0xbdd6d430	-0.1048969
221	0x3e1db732	0.15401915
222	0xbe7b7dc1	-0.2455969
223	0xbe3906fb	-0.18069069
224	0x3e2479d4	0.16062099
225	0x3d64eb00	0.055888176
226	0x3d9648b0	0.07338083
227	0xbd5aca80	-0.053415775
228	0xbd525c38	-0.051357478
229	0xbd740d20	-0.05958283
230	0x3e0da638	0.13832939
231	0xbe4db22e	-0.20087501
232	0x3e5db17e	0.21649739
233	0xbe54e81e	-0.2079167
234	0x3cf241e0	0.029572427
235	0x3e3ca0fc	0.18420786
236	0x3df1ee5c	0.118130416
237	0xbd7b4c84	-0.061352268
238	0xbdfd853e	-0.123789296
239	0xbe1074d8	-0.14107072
240	0xbd99bd7c	-0.075068444
241	0xbe166efa	-0.14690772
242	0x3b579400	0.0032894611
243	0x3ddfdf30	0.109312415
244	0xbcfb8678	-0.030703768
245	0x3dca2c5c	0.09871742
246	0xbdc4f990	-0.09617913
247	0xbe809f0a	-0.25121337
248	0x3d9e29ac	0.07722792
249	0x3e3e8f60	0.1860938
250	0xbdb477d2	-0.088119164
251	0xbe5edc04	-0.21763617
252	0x3e150dfc	0.14556116
253	0x3e7dc6b6	0.24782833
254	0xbe47ee18	-0.1952442
255	0xbd1da718	-0.03848943

MLP.3.bias f4 [20]
0	0x3e437aa0	0.19089746
1	0xbd957f5a	-0.07299681
2	0x3e2bc476	0.16774163
3	0xbc3742c0	-0.011185348
4	0x3c5787c0	0.013154924
5	0xbde56086	-0.11200051
6	0xbd2e6144	-0.04257323
7	0xbe6211d4	-0.22077113
8	0x3b952200	0.0045511723
9	0x3e4ac1a6	0.19800434
10	0xbcf7b2d0	-0.030236632
11	0x3e4142f8	0.18873203
12	0xbcc8ee70	-0.024527758
13	0x3db0aea4	0.0862706
14	0xbcd79068	-0.026313975
15	0xbe2f60b6	-0.17126736
16	0x3df9593c	0.12175223
17	0x3e8245f3	0.25443992
18	0x3d1410a8	0.036148697
19	0x3e48873c	0.19582838

MLP.4.weight f4 [15, 20]
0	0xbe1fae46	-0.15593824
1	0x3d834c98	0.064110935
2	0xbd86226e	-0.06549536
3	0xbe40ee5a	-0.18840924
4	0x3d18b900	0.037285805
5	0x3deca454	0.115547806
6	0xbe3c8c30	-0.18412852
7	0x3e1e86a8	0.15481055
8	0xbe0d5613	-0.13802366
9	0x3cb17220	0.021660864
10	0x3d573c90	0.05254799
11	0xbe630ffa	-0.22174063
12	0x3da0d7f8	0.07853693
13	0xbd55556c	-0.052083418
14	0x3e09f8a4	0.13473755
15	0x3e067534	0.13130647
16	0xbde2b0a5	-0.110688485
17	0x3e0a9fae	0.13537475
18	0xbd8c5eb4	-0.06854001
19	0xbdc9efba	-0.09860177
20	0xbcac36b8	-0.021022186
21	0xbde15f79	-0.11004538
22	0x3ced79e0	0.028988779
23	0xbdfc022e	-0.12305103
24	0xbde4d73c	-0.11173865
25	0xbd24b938	-0.0402157
26	0x3e295d1a	0.16539422
27	0xbd9366f2	-0.0719737
28	0x3dc122a8	0.09430438
29	0xbe01055c	-0.125997
30	0x3de40c18	0.11135119
31	0x3ddc730c	0.10764131
32	0x3dda8814	0.10670486
33	0x3e2cce7a	0.1687564
34	0xbe467b77	-0.19383036
35	0x3c27b080	0.010234952
36	0xbda300ea	-0.07959159
37	0x3e4ed74e	0.2019932
38	0xbde531cf	-0.11191141
39	0x3e29f70c	0.16598147
40	0x3d8aac2c	0.067711204
41	0xbe287b82	-0.16453364
42	0xbe5b366c	-0.21407479
43	0x3e43f770	0.19137359
44	0xbe3e8068	-0.1860367
45	0xbe2dacca	-0.16960445
46	0xbdafa818	-0.08576983
47	0x3e045752	0.12923935
48	0xbe03e5f4	-0.12880689
49	0x3db98e3c	0.09060332
50	0xbd37d020	-0.044876218
51	0x3e59a88a	0.21255699
52	0xbe2c7274	-0.16840535
53	0xbd0fd274	-0.035112813
54	0xbbb20600	-0.005432844
55	0x3d59ff88	0.05322221
56	0x3d9b78f8	0.07591432
57	0x3dd4a430	0.10382879
58	0x3b91ebc0	0.0044531524
59	0xbd3e83c0	-0.046512365
60	0x3d9d188c	0.076706976
61	0x3e0b20a0	0.13586664
62	0xbd962a78	-0.07332319
63	0x3e36f48c	0.17866725
64	0xbd5bb99c	-0.053643808
65	0xbe160d00	-0.14653397
66	0xbe4b4881	-0.19851877
67	0xbd34875c	-0.0440744
68	0x3e58064e	0.21096155
69	0x3e52a424	0.20570427
70	0x3d9838cc	0.07432708
71	0x3e4fc140	0.20288563
72	0x3dc742c4	0.097295314
73	0x3d24b920	0.04021561
74	0x3d936100	0.07196236
75	0xbe2e57e4	-0.17025715
76	0xbd9baee8	-0.0760172
77	0x3c57b190	0.013164893
78	0x3c03e6e0	0.00805065
79	0x3dacb838	0.084335744
80	0x3e39b092	0.18133762
81	0x3e5452cc	0.2073471
82	0xbe18b9a8	-0.14914572
83	0x3e3a75be	0.18208978
84	0x3dbb2640	0.09138155
85	0x3d9a32cc	0.0752922
86	0xbe173cb1	-0.14769246
87	0x3e56cbfe	0.20976254
88	0x3d66b7e0	0.0563277
89	0x3e0c49d4	0.13700038
90	0xbbe3f440	-0.006956607
91	0xbe009a18	-0.12558782
92	0xbdaf6a50	-0.085651994
93	0x3db0b418	0.086281
94	0x3e5c43b8	0.21510208
95	0x3e1ae8b4	0.15127832
96	0x3d7f09c0	0.062265158
97	0xbdb4650a	-0.08808334
98	0xbd0eb944	-0.03484465
99	0xbe2cd3a5	-0.16877611
100	0xba4e0e00	-0.00078603625
101	0xbe0e0664	-0.13869625
102	0x3d000600	0.031255722
103	0xbb1e0e80	-0.002411753
104	0xbc9c6828	-0.019092634
105	0x3e40bcd2	0.18822029
106	0xbe5c98e9	-0.21542706
107	0x3e430b82	0.19047359
108	0xbdf489a1	-0.11940313
109	0x3e3cbc10	0.18431115
110	0x3d910c44	0.070824176
111	0xbe3f020c	-0.18653125
112	0xbe442e38	-0.19158256
113	0x3cc6a8f8	0.024250492
114	0x3e193fee	0.14965793
115	0x3cd4e2a0	0.02598697
116	0xbd295c04	-0.04134752
117	0xbe240fca	-0.16021648
118	0x3e1e37a2	0.1545091
119	0xbca315e8	-0.019907907
120	0xbe516051	-0.20446898
121	0x3d5569d8	0.052102894
122	0x3d9783c4	0.07398179
123	0x3e3d1e80	0.18468666
124	0xbe293fb4	-0.16528207
125	0x3d0c3c88	0.034237415
126	0xbe2631ae	-0.16229889
127	0xbd47a1d8	-0.04873833
128	0xbd177870	-0.036980093
129	0x3e0ce172	0.13757876
130	0xbe016c74	-0.12639028
131	0x3e25a144	0.16174799
132	0x3d72c168	0.059266478
133	0x3e608828	0.2192694
134	0x3d3404d8	0.04394993
135	0x3e623654	0.22091037
136	0xbd88de46	-0.0668302
137	0x3e4a6314	0.19764358
138	0x3c1ed920	0.009695321
139	0x3e5f4768	0.21804583
140	0x3e5c0b72	0.21488741
141	0x3e244bbe	0.16044518
142	0xbe008f78	-0.12554729
143	0xbe4eb69c	-0.20186847
144	0xbdf1d82a	-0.11808808
145	0x3bb93de0	0.005653128
146	0x3e0aa95a	0.13541165
147	0xbace1b00	-0.0015724599
148	0x3e089ad2	0.1334031
149	0xbe4ea3ae	-0.20179626
150	0xbdd1df0a	-0.102476195
151	0x3dd116ac	0.102094024
152	0xbe1c1d66	-0.1524559
153	0x3c2bdf20	0.010490209
154	0xbe45d8c3	-0.1932097
155	0x3e3b6270	0.1829927
156	0xbe46c239	-0.19410028
157	0x3e486e5a	0.19573346
158	0x3dd2148c	0.10257825
159	0xbdb1b20c	-0.08676538
160	0xbe212392	-0.15736225
161	0xbca99158	-0.020699188
162	0xbcf0b6f8	-0.029384121
163	0x3e1da172	0.15393618
164	0x3da80670	0.08204353
165	0x3be81480	0.007082522
166	0xbdebaf87	-0.115080886
167	0x3d898a18	0.067157924
168	0xbd98f72a	-0.07469018
169	0xbdb223be	-0.086982235
170	0xbdff80ad	-0.12475715
171	0x3e4f68b0	0.20254779
172	0x3d5fdc90	0.054653704
173	0xbdde36de	-0.10850309
174	0x3ca956f0	0.020671338
175	0xbdb3258e	-0.08747397
176	0x3e342d76	0.17595467
177	0x3dcd2e6c	0.1001862
178	0x3e447834	0.19186479
179	0x3e366b70	0.17814422
180	0x3d896b5c	0.0670993
181	0x3d732148	0.05935791
182	0x3c03a170	0.008034095
183	0x3e00921a	0.12555733
184	0xbd18ab00	-0.037272453
185	0x3a46d600	0.0007584989
186	0x3dc63c74	0.09679499
187	0xbde6eecd	-0.112760164
188	0xbcd8a8b8	-0.026447639
189	0x3dba0fd0	0.09085047
190	0x3e0946e8	0.13405955
191	0x3cc7d3b0	0.024392933
192	0x3e4861fe	0.19568631
193	0x3db3d344	0.0878053
194	0x3c1eed10	0.009700075
195	0x3d9d18d0	0.07670748
196	0x3dca70d8	0.098848045
197	0xbd6da584	-0.058019176
198	0xbd17c984	-0.037057415
199	0x3cc50958	0.024052307
200	0xbdb98d5a	-0.09060164
201	0x3dc3c8f0	0.0955981
202	0xbdf67590	-0.12034142
203	0xbde5f9e1	-0.11229301
204	0x3e62c2de	0.22144648
205	0xbcdfb9e8	-0.027310327
206	0x3e3f504e	0.18682978
207	0x3e454136	0.19263157
208	0x3d859b40	0.06523752
209	0xbe514001	-0.20434572
210	0x3d918420	0.07105279
211	0xbd86bbac	-0.06578764
212	0xbe010764	-0.12600476
213	0x3e12658c	0.1429655
214	0x3ba8d620	0.005152479
215	0xbd8cf78a	-0.06883152
216	0xbe4d7eee	-0.20067951
217	0x3e2fa822	0.17153981
218	0x3cc580d8	0.024109289
219	0xbe33c53a	-0.17555705
220	0xbc4a5eb0	-0.012351677
221	0xbd560480	-0.052250385
222	0x3d881e44	0.06646398
223	0x3e520380	0.20509148
224	0xbdea9b6e	-0.11455427
225	0xbc4f7020	-0.01266101
226	0x3dafe790	0.08589089
227	0xba95c700	-0.0011427104
228	0x3e53b13a	0.20673075
229	0xbe1a3370	-0.15058684
230	0x3df10338	0.11768192
231	0xbd933816	-0.07188432
232	0xbd9b5d2a	-0.07586129
233	0x3e4dbf72	0.20092562
234	0xbe5a040e	-0.21290609
235	0xbe4824d8	-0.19545305
236	0xbdb81c2a	-0.08989747
237	0x3de867a8	0.11347896
238	0x3d234908	0.03986457
239	0x3d38ab20	0.045085073
240	0x3db2b3ec	0.087257236
241	0x3de72858	0.11286992
242	0xbcce0468	-0.025148585
243	0xbe022d14	-0.12712508
244	0x3d7fce18	0.062452406
245	0xbe1a7b22	-0.15086034
246	0xbdbbdc98	-0.09172934
247	0x3e2d36ea	0.1691548
248	0x3d9a37f0	0.075302005
249	0xbca18d40	-0.019720674
250	0xbe293bb4	-0.16526681
251	0xbe360fb1	-0.17779423
252	0x3e3901ea	0.18067136
253	0xbc5565a0	-0.013024718
254	0xbe54748d	-0.20747586
255	0x3d955d58	0.072931945

MLP.4.bias f4 [15]
0	0xbd5a943c	-0.053364024
1	0xbe2e9d23	-0.1705213
2	0xbd87ed04	-0.06637004
3	0x3e13fbd2	0.1445153
4	0x3d0cc448	0.034366876
5	0x3e294bc8	0.16532815
6	0x3e404a2a	0.18778291
7	0xb9c95400	-0.00038400292
8	0x3e29a2d8	0.16566026
9	0x3e4e2398	0.20130765
10	0xbe64b22a	-0.22333589
11	0x3e27ce48	0.16387284
12	0x3e2c489e	0.16824576
13	0x3dc73c88	0.09728342
14	0xbd12bc7c	-0.035824284

MLP.5.weight f4 [10, 15]
0	0xbe576fc2	-0.21038726
1	0xbd8efa5e	-0.069813475
2	0xbd155b84	-0.03646423
3	0xbdb2fdf2	-0.087398425
4	0x3e4150d2	0.18878487
5	0x3e505848	0.20346177
6	0x3e552926	0.20816478
7	0x3de697ac	0.11259398
8	0xbc638a70	-0.013887987
9	0xbe2c0abe	-0.16800973
10	0xbe300c60	-0.1719222
11	0xbd221780	-0.039573193
12	0xbd953bd2	-0.072868004
13	0xbe1b5f98	-0.15173185
14	0x3da20908	0.07911879
15	0xbe71c69d	-0.23610921
16	0xbe57cdc0	-0.21074581
17	0xbc914d38	-0.017737016
18	0x3e1174a0	0.14204645
19	0xbdf9748a	-0.12180431
20	0xbd68ea28	-0.056863934
21	0xbe05ff2f	-0.13085626
22	0x3e3d6ea6	0.1849924
23	0xbe65ac34	-0.22428972
24	0xbd9d49d8	-0.076801
25	0xbd088c8c	-0.03333716
26	0x3df49f10	0.11944401
27	0xbe70b193	-0.23505239
28	0xbe690cee	-0.22758839
29	0xbe44be6e	-0.19213268
30	0x3e4e2960	0.20132971
31	0xbb98c1c0	-0.0046617687
32	0x3e2d05bc	0.16896719
33	0xbd5a628c	-0.053316638
34	0xbe3c40a3	-0.18384032
35	0xbe4af86e	-0.19821331
36	0xbc1e16a0	-0.009648949
37	0x3c90d790	0.017680913
38	0xbd0e9138	-0.03480646
39	0xbd89c988	-0.06727892
40	0xbe1e4748	-0.15456879
41	0x3e0f1004	0.13970953
42	0x3ccf4c20	0.025304854
43	0xbe42a5d4	-0.19008571
44	0x3d05bea0	0.032652497
45	0xbe365c9e	-0.17808768
46	0xbd075b8c	-0.03304629
47	0xbdba29fa	-0.09090038
48	0xbca63c58	-0.020292446
49	0x3d81fd58	0.063471496
50	0xbe23396c	-0.15939873
51	0xbcbf2b08	-0.023335949
52	0x3e40c11e	0.18823668
53	0x3e30d9e6	0.17270622
54	0xbbcff3c0	-0.006346196
55	0xbd00e2fc	-0.03146647
56	0xbe5a4ca0	-0.21318293
57	0x3e7d897e	0.2475948
58	0xbc5315f0	-0.012883648
59	0x3d8343bc	0.06409404
60	0x3e82944b	0.25503764
61	0x3e5e9686	0.21737108
62	0xbe31d665	-0.17366941
63	0x3e0db8fc	0.13840097
64	0x3e1cfdb2	0.15331152
65	0xbe190cdc	-0.14946312
66	0xbc70a010	-0.014686599
67	0x3e178c56	0.14799628
68	0xbe0f740a	-0.14009109
69	0xbc672120	-0.014107019
70	0xbe186156	-0.1488088
71	0x3db71104	0.08938792
72	0x3df65520	0.12027955
73	0x3dd74bcc	0.10512504
74	0xbcf1c068	-0.029510692
75	0x3d3e4d98	0.046460718
76	0x3b4f7b80	0.0031659305
77	0xbc54eab0	-0.012995407
78	0xbe3ddc45	-0.18541057
79	0xbdf470b6	-0.119355604
80	0x3e2cdb18	0.16880453
81	0xbbef7d00	-0.0073086023
82	0x3e61aa46	0.2203761
83	0xbcb92d50	-0.022604614
84	0xbe0e8bb6	-0.13920483
85	0xbe7ff6af	-0.24996446
86	0x3de54714	0.11195198
87	0xbe33545e	-0.17512652
88	0xbe6a4fe9	-0.22882046
89	0x3d0bd5b0	0.034139335
90	0xbd9af8f0	-0.07567012
91	0xbe661682	-0.22469524
92	0x3e7a89ca	0.24466625
93	0xbe3d2b88	-0.18473637
94	0xbbaaab80	-0.0052084327
95	0xbd7b5ba8	-0.061366707
96	0xbd1bcd0c	-0.038037345
97	0xbe81a6c3	-0.25322542
98	0x3e2ffc16	0.17186007
99	0xbc34f820	-0.011045486
100	0x3e7b733a	0.24555674
101	0xbe23cd7a	-0.15996352
102	0x3d902bc0	0.07039595
103	0xbe78c61c	-0.24294323
104	0xbc470940	-0.012148201
105	0xbe4c5bc4	-0.19956881
106	0x3df0d9ec	0.11760315
107	0x3caaa070	0.020828456
108	0x3e562f00	0.20916367
109	0x3de5fcfc	0.112298936
110	0x3d4edcf8	0.0505037
111	0xbe0a8168	-0.13525927
112	0x3d1d7808	0.03844455
113	0xbe27e727	-0.16396771
114	0xbe4ed721	-0.20199253
115	0x3c2e2640	0.010629237
116	0xbe087ef2	-0.13329676
117	0x3df8ac78	0.12142271
118	0xbd23dc78	-0.040005177
119	0xbe04c8de	-0.1296725
120	0xbe6e6a43	-0.23282723
121	0x3d874900	0.066057205
122	0x3de8f6e8	0.11375219
123	0x3e494cd0	0.19658208
124	0x3e4f2d66	0.20232162
125	0xbd87f2b2	-0.06638087
126	0xbd225aa8	-0.039637238
127	0x3d5fcad0	0.054636776
128	0xbdebb034	-0.115082175
129	0xbe1f85b0	-0.15578341
130	0xbd67c14c	-0.056580827
131	0x3e4c5602	0.19954684
132	0xbe7d1b3a	-0.24717417
133	0xbe065311	-0.13117625
134	0xbce91018	-0.028450057
135	0xbd7f27ac	-0.062293693
136	0xbd11ba18	-0.035577863
137	0xbc1007f0	-0.008790955
138	0xbe373921	-0.17892887
139	0x3dc7f758	0.09763974
140	0xbe7c8556	-0.24660239
141	0xbe35d484	-0.1775685
142	0x3db82d7c	0.089930505
143	0x3ad63800	0.0016343594
144	0xbe22b3c6	-0.1588889
145	0xbc3b9ef0	-0.011451468
146	0xbe83b3de	-0.25723165
147	0xbe719a3a	-0.23593989
148	0x3cc455f0	0.02396676
149	0x3c8362f0	0.016038388

MLP.5.bias f4 [10]
0	0xbd61ec08	-0.055156738
1	0xbd879970	-0.06621063
2	0x3e21f3d0	0.15815663
3	0xbe1ef2ed	-0.15522356
4	0x3e160b24	0.14652687
5	0xbe34cf9b	-0.1765732
6	0x3d443448	0.04790142
7	0x3e0ee3fa	0.13954154
8	0x3e16c19a	0.1472229
9	0x3e83b3c9	0.25723103
